models/music_gnn_model.pth (torch, 136813 bytes, 4 tensors)

conv1.bias f4 [64]
-0.03297053 -0.03055721 0.0014153387 0.017600838 -0.05922807 -0.008360282 -0.05449093 -0.041354764
-7.971574e-06 -0.0467246 -0.05751758 0.034066755 -0.008335473 -0.015434453 0.008263926 -0.016616333
0.012429904 -0.010298191 -0.031383805 -0.014103733 -0.021987671 0.008769641 0.0024022125 -0.00072857685
-0.058684193 -0.00037132815 0.0037593239 -0.057676416 9.1281413e-07 0.0044705374 -0.056984045 -0.040067594
-0.013324292 -0.075830884 -0.07558472 -0.057449285 -1.0177148e-05 -0.013222674 0.00093838724 -0.05667354
-0.042341247 -0.06172364 -0.048553873 0.012686714 0.0014860719 -0.046976797 -4.1983367e-06 -0.047341846
-0.031196138 -0.036000617 0.027983006 -0.009849599 -0.051237043 -0.061842315 -0.0005548677 0.0071223313
-1.9307379e-08 -0.049196836 0.015960408 -0.012125755 4.4530584e-06 -0.040098444 -0.03253769 -0.014861268
00000000: 1b0c 07bd 1d53 fabc e382 b93a a22f 903c
00000010: 2299 72bd 90f9 08bc e231 5fbd 9d63 29bd
00000020: a6bd 05b7 4b62 3fbd 8e97 6bbd 9589 0b3d
00000030: 8291 08bc cae0 7cbc 6b65 073c fa1e 88bc
00000040: cca6 4b3c beb9 28bc 4e8c 00bd 5813 67bc
00000050: 7d1f b4bc 8aae 0f3c 706e 1d3b f7fd 3eba
00000060: d65e 70bd d2ae c2b9 fd5e 763b 1b3e 6cbd
00000070: 1c08 7535 967d 923b 1a68 69bd eb1d 24bd
00000080: 224e 5abc 394d 9bbd 29cc 9abd f14f 6bbd
00000090: 85be 2ab7 eaa3 58bc 1afe 753a 8422 68bd
000000a0: 046e 2dbd edd1 7cbd 6de0 46bd efdb 4f3c
000000b0: 4cc8 c23a be6a 40bd 70df 8cb6 86e9 41bd
000000c0: 0b8f ffbc 6275 13bd 9e3c e53c 3660 21bc
000000d0: efdd 51bd 5e4e 7dbd 8b74 11ba 7262 e93b
000000e0: 60d9 a5b2 9f82 49bd 67bf 823c 1aab 46bc
000000f0: 7b6b 9536 443e 24bd 3e46 05bd ad7c 73bc

conv1.lin.weight f4 [64, 518]
-0.15743415 -0.20830183 0.08104702 -0.24040541 -0.17652003 -0.12940313 -0.04584019 -0.06442102
-0.014787734 0.030167554 0.046078376 -0.031651467 -0.05495572 -0.049315423 -0.039201874 -0.036007147
0.022966066 0.00682197 -0.02918851 -0.056560665 0.031502906 -0.012693678 0.045022964 -0.05087067
-0.10191452 -0.05729474 -0.11398637 -0.040235914 0.039974242 0.021029513 -0.1326035 -0.120724864
-0.044947226 -0.006502768 0.04748038 -0.111677065 -0.027560035 0.062441863 -0.068098985 -0.07513833
0.0070365444 -0.09281264 -0.12542756 0.015357587 -0.09492276 -0.084676035 -0.05018668 0.036125105
0.00033833698 0.012654699 0.013234978 -0.019263713 -0.017536702 -0.0033648985 -0.025492474 -0.014839352
-0.02882588 -0.0005254077 -0.0096564 -0.013334108 -0.099714436 -0.13540117 -0.040068574 0.00048762644
-0.013652389 0.032821443 -0.09641049 -0.037759632 0.0012978769 0.015086613 0.015851934 -0.009309395
-0.04882874 -0.012537543 0.014194638 0.039935555 0.008323831 0.042447243 -0.07652006 -0.029390175
0.06339794 -0.10284598 0.058739964 0.012739995 -0.05524893 0.051748104 0.13197967 0.061663017
0.14966698 -0.004205538 -0.0021675932 -0.058055248 -0.056648295 0.042068876 0.011672675 0.109845996
0.058546178 0.041940376 -0.091874465 0.054758213 -0.08188766 -0.055490855 -0.1266986 0.027123233
0.003188406 -0.11937701 -0.074922 0.010952155 0.06653846 -0.052760683 -0.13296938 -0.053649474
-0.060722303 0.05382767 0.021732572 -0.0075386185 -0.07743753 -0.0093157105 0.050845914 -0.09273469
-0.092708446 -0.04853552 0.0031351326 -0.08825042 -0.08495256 -0.0063836104 0.04163996 -0.05356643
-0.044054832 -0.019379357 -0.1358307 -0.011363886 -0.021907492 -0.02202149 -0.00052887696 -0.043401316
-0.004481032 -0.08401793 -0.0040010693 -0.05326943 -0.055801034 -0.074496746 -0.01187338 -0.028466407
-0.06174917 -0.061771408 -0.123507105 0.061688714 0.098149925 0.033618405 -0.051000353 -0.03447643
0.015697146 0.025857266 -0.06627308 -0.099435896 -0.02512968 0.056406047 -0.06693022 -0.09271927
-0.0013457272 -0.017588781 -0.083276354 -0.054165542 0.0020410987 -0.12093828 -0.040650748 -0.10022181
0.024824396 0.0027231255 0.13344082 0.084532164 -0.056296136 0.059231218 0.08864805 0.12389988
0.17595719 0.12499937 0.14403199 0.101994045 -0.074530624 0.046842035 -0.104680866 0.064688995
-0.032479107 0.0034848491 -0.02191537 0.042656243 0.062846676 -0.120810054 0.043240447 -0.05485514
0.04568425 -0.008582264 0.08049372 0.016239125 0.0051637683 -0.101913795 0.066990696 0.006441535
-0.01767808 -0.009824281 -0.014496098 -0.013478785 -0.0051168436 -0.09669382 0.06791472 0.03527125
0.026882717 0.0061819525 -0.02003378 -0.053140957 0.059763532 0.0317717 -0.10819693 0.07044537
0.0015573647 0.0070145573 0.0033814765 0.009125669 0.008242369 0.0061523104 0.0006704301 0.0015644081
0.0047311117 0.0036392312 0.00031184623 0.004340629 -0.07265461 -0.2353987 -0.16410133 -0.15906444
-0.20879467 -0.09222698 -0.017649 -0.03893279 -0.04777221 0.014731322 -0.19672893 -0.13355842
-0.019301554 -0.015689408 0.060589477 -0.116233565 -0.02341915 -0.06479179 -0.10190994 0.01908986
-0.06771277 -0.051282182 -0.09456183 -0.090242565 -0.055523153 -0.11667638 -0.11374957 -0.09635882
00000000: 6b36 21be 134d 55be fbfb a53d d62c 76be
00000010: abc1 34be 4182 04be ecc2 3bbd 2bef 83bd
00000020: 4048 72bc f221 f73c aebc 3c3d f8a4 01bd
00000030: 4019 61bd f8fe 49bd 2592 20bd 3b7c 13bd
00000040: 5523 bc3c d58a df3b be1c efbc 28ac 67bd
00000050: 3109 013d 25f9 4fbc 006a 383d c35d 50bd
00000060: 8fb8 d0bd e4ad 6abd b071 e9bd 6ace 24bd
00000070: 08bc 233d 1646 ac3c 36c9 07be 993e f7bd
00000080: 951a 38bd 2c15 d5bb c97a 423d f2b6 e4bd
00000090: 95c5 e1bc 0ac3 7f3d 7b77 8bbd 20e2 99bd
000000a0: d092 e63b 8e14 bebd 1570 00be 639e 7b3c
000000b0: dd66 c2bd a16a adbd 8c90 4dbd ebf7 133d
000000c0: d262 b139 a855 4f3c 85d7 583c efce 9dbc
000000d0: 21a9 8fbc a185 5cbb 98d5 d0bc c120 73bc
000000e0: 4024 ecbc 84bb 09ba e135 1ebc 4d77 5abc
000000f0: 1537 ccbd 9ba6 0abe f21e 24bd 1da8 ff39
00000100: 45ae 5fbc c76f 063d dd72 c5bd d8a9 1abd
00000110: 861d aa3a d72d 773c eadb 813c 6f86 18bc
00000120: a500 48bd 446a 4dbc a090 683c 7793 233d
00000130: ad60 083c 29dd 2d3d 8db6 9cbd aac3 f0bc
00000140: c7d6 813d eaa0 d2bd 5199 703d 69bb 503c
00000150: b44c 62bd d2f5 533d ae25 073e 5c92 7c3d
00000160: 4d42 193e 9cce 89bb 2e0e 0ebb 57cb 6dbd
00000170: 0b08 68bd 6a50 2c3d bf3e 3f3c f0f6 e03d
00000180: 1ece 6f3d acc9 2b3d ae28 bcbd 264a 603d
00000190: b8b4 a7bd 614a 63bd 47bd 01be 8b31 de3c
000001a0: 93f4 503b ef7b f4bd b570 99bd ab70 333c
000001b0: 5145 883d 961b 58bd 2029 08be 8dbf 5bbd
000001c0: f3b7 78bd 677a 5c3d 8208 b23c 8406 f7bb
000001d0: 9197 9ebd eca0 18bc ce43 503d afeb bdbd
000001e0: eddd bdbd 2ecd 46bd cc76 4d3b a3bc b4bd
000001f0: 9cfb adbd 9b2d d1bb aa8e 2a3d 7968 5bbd
00000200: d772 34bd 75c1 9ebc 3417 0bbe 982f 3abc
00000210: 5777 b3bc 6966 b4bc 55a4 0aba 94c5 31bd
00000220: 9fd5 92bb 9811 acbd 671b 83bb 0c31 5abd
00000230: a08f 64bd c091 98bd 9188 42bc 6232 e9bc
00000240: b3ec 7cbd 0404 7dbd 4bf1 fcbd 4ead 7c3d
00000250: d402 c93d 74b3 093d bfe5 50bd 2837 0dbd
00000260: 4d97 803c 9ed2 d33c 2eba 87bd 0ca5 cbbd
00000270: c2dc cdbc 070a 673d b612 89bd 9ae3 bdbd
00000280: 1d63 b0ba 5916 90bc cb8c aabd b0dc 5dbd
00000290: f4c3 053b 7dae f7bd 6681 26bd 1841 cdbd
000002a0: 885c cb3c 7776 323b b6a4 083e 331f ad3d
000002b0: c796 66bd 6f9c 723d 1c8d b53d 38bf fd3d
000002c0: 1f2e 343e abff ff3d 1f7d 133e 41e2 d03d
000002d0: 83a3 98bd 6fdd 3f3d ec62 d6bd aa7b 843d
000002e0: d008 05bd 1162 643b dd87 b3bc 50b8 2e3d
000002f0: c2b5 803d 436b f7bd e51c 313d c9af 60bd
00000300: 681f 3b3d a09c 0cbc e4d9 a43d ea07 853c
00000310: d434 a93b 2eb8 d0bd 6b32 893d 8313 d33b
00000320: 9fd1 90bc 05f6 20bc 0b81 6dbc 1fd6 5cbc
00000330: 32ab a7bb 6907 c6bd df16 8b3d 9678 103d
00000340: 2539 dc3c fa91 ca3b e21d a4bc 55aa 59bd
00000350: 9bca 743d 0b23 023d 5a96 ddbd aa45 903d
00000360: 7d20 cc3a 5fda e53b c39b 5d3b d483 153c
00000370: 000b 073c 5299 c93b cdbf 2f3a d30c cd3a
00000380: 7107 9b3b 2b80 6e3b 4b7f a339 d63b 8e3b
00000390: f1cb 94bd 5b0c 71be 2e0a 28be cae1 22be
000003a0: 45ce 55be 80e1 bcbd a394 90bc fd77 1fbd
000003b0: cbac 43bd a55b 713c 4f73 49be 8ac3 08be
000003c0: 4b1e 9ebc 1387 80bc ac2c 783d dd0b eebd
000003d0: 84d9 bfbc 8fb1 84bd 29b6 d0bd 5762 9c3c
000003e0: feac 8abd 440d 52bd a2a9 c1bd 18d1 b8bd
000003f0: 3f6c 63bd 07f4 eebd 89f5 e8bd c657 c5bd

conv2.bias f4 [5]
-0.0070588617 0.028148504 0.012822766 0.03289634 0.01905171
00000000: 064e e7bb b197 e63c 9416 523c 50be 063d
00000010: 5512 9c3c

conv2.lin.weight f4 [5, 64]
0.07074346 0.06533041 -0.1504 0.17184354 0.2306349 -0.06756326 -0.13878855 -0.11637432
0.023809727 0.005047235 0.012152283 0.30603567 -0.011157178 -6.380636e-07 -0.04929372 0.06600091
0.14803673 -0.111979045 0.25597242 0.09806466 -0.018289186 -0.013305181 -0.11503615 -0.17131622
-0.04148256 0.03281622 -0.13369344 0.08895419 4.0868345e-06 0.03248666 0.03965171 -0.03271086
0.14508988 0.13799413 0.18719582 0.22389881 0.041958462 0.26628044 0.23771288 0.035258483
-0.1382945 0.045791484 0.092320405 -0.14660105 -0.06199615 -0.046706166 1.6175189e-06 -0.030446533
0.26486945 0.20390141 -0.10405027 -0.16054861 -0.09979126 -0.14862502 0.015395279 -0.011839335
-1.9123734e-06 0.07664951 0.060073085 0.0991713 3.3552915e-06 0.08397289 -0.0048813676 0.059184745
-0.021829216 0.032445733 0.17823128 0.033918817 0.09604619 -0.19374144 -0.18467094 0.09672058
-0.2385157 0.16500777 0.057787612 0.04829044 -0.000520699 0.03536841 0.20880634 -0.05612772
0.1248902 -0.14169554 0.032817483 0.22376685 -0.008445932 0.0134667205 -0.14356263 -0.23745161
-0.011253457 -0.071935415 0.1716915 -0.059418935 -3.932012e-06 0.07879863 -0.105091944 -0.10742677
-4.6246536e-05 0.35158736 0.15052298 -0.2304117 3.2829237e-06 -0.06516788 -0.07462055 -0.15786713
-0.08443258 0.0011226214 0.02013955 -0.022861509 0.08861045 0.12325356 0.069017634 -0.0016485887
0.00067824865 -0.10592207 0.19517913 -0.021403138 -0.09979112 0.17070341 0.0593133 0.22262764
0.12913996 -0.11257248 0.22626825 0.2481142 -0.040489234 0.34517843 -0.08997946 0.10732798
0.23746829 0.008417285 0.046090912 0.031823587 0.16781078 0.039397407 -0.0849817 -0.14386716
-0.19961588 0.1321388 -0.03169108 0.21352369 -0.052036762 0.009049817 -0.1448384 0.009482625
0.010222262 0.15634754 0.0096592475 0.2214811 -0.026677161 0.20628673 -0.22465196 0.27864048
-0.18528222 0.122292094 -0.05508459 -0.07317311 4.070921e-06 -0.15116052 -0.17241588 0.21893479
-0.03006721 -0.09766138 0.09479179 0.32019737 0.13547143 0.04181256 -0.13130866 -0.21403968
-0.08960922 0.08607612 0.05596332 -0.13764395 -0.06087391 0.04924965 -0.03198518 -0.07556059
0.038844954 0.21628974 -0.010623047 0.10134048 0.04404671 0.1825878 0.01852558 0.027384179
0.23116112 0.14465532 0.023337184 0.052428216 -0.11258417 -0.15672179 -0.06740612 -0.23026706
-0.048820384 -0.02961166 0.17155704 0.046989333 0.014563929 0.20827447 0.08943905 -0.019983178
0.18332566 0.15344423 -0.018657595 0.13395718 -0.13613941 0.0027344096 0.22110105 0.056014147
0.031859532 -0.010510248 0.09718198 0.28248832 0.0077720545 0.09052813 -0.0058243414 0.12860978
-0.14288712 0.0047710007 0.23430446 0.23981284 -0.024748746 -0.14379454 -0.011824139 0.04598784
-0.01926517 0.28884777 -0.09023381 0.177862 6.525036e-05 0.12950042 0.090357445 -0.011963424
-0.055094443 0.20874372 0.009674966 0.123605564 -0.097397044 0.112107866 -5.588941e-07 -0.09514548
0.04258256 -0.13423204 0.21272567 0.038639117 -0.096707925 0.19016832 -0.25256348 -0.19421469
2.569687e-06 0.21642381 0.0916585 -0.051222708 1.0742781e-06 0.2094324 -0.0139909275 -0.1983336
00000000: f2e1 903d f3cb 853d 7502 1abe c1f7 2f3e
00000010: 8e2b 6c3e 9b5e 8abd 961e 0ebe a955 eebd
00000020: 9e0c c33c 4763 a53b 5f1a 473c b5b0 9c3e
00000030: 99cc 36bc 6647 2bb5 36e8 49bd 7c2b 873d
00000040: f196 173e 4555 e5bd d10e 833e 20d6 c83d
00000050: 34d3 95bc f9fd 59bc 1398 ebbd 856d 2fbe
00000060: 9ee9 29bd 4d6a 063d efe6 08be 9d2d b63d
00000070: a421 8936 bb10 053d d569 223d d3fb 05bd
00000080: 7192 143e 554e 0d3e 43b0 3f3e bb45 653e
00000090: a3dc 2b3d e955 883e 016b 733e 336b 103d
000000a0: 139d 0dbe da8f 3b3d 7b12 bd3d 961e 16be
000000b0: adef 7dbd f74e 3fbd 8719 d935 026b f9bc
000000c0: f89c 873e 88cb 503e 4f18 d5bd db66 24be
000000d0: 5c5f ccbd 2831 18be 7b3c 7c3c c5f9 41bc
000000e0: 5356 00b6 6bfa 9c3d 320f 763d 531a cb3d
000000f0: 782b 6136 fbf9 ab3d e1f3 9fbb b46b 723d
00000100: 2fd3 b2bc d1e5 043d 4382 363e 75ee 0a3d
00000110: ddb3 c43d 2864 46be 611a 3dbe 7015 c63d
00000120: 763d 74be ccf7 283e b4b2 6c3d 32cc 453d
00000130: 857f 08ba 77de 103d 54d1 553e 2ee6 65bd
00000140: 6fc6 ff3d a318 11be a06b 063d 2323 653e
00000150: ce60 0abc 85a3 5c3c 1502 13be 8426 73be
00000160: 6b60 38bc e052 93bd e6cf 2f3e 4561 73bd
00000170: baef 83b6 2d61 a13d 723a d7bd 9102 dcbd
00000180: d7f8 41b8 4203 b43e b222 1a3e 0bf1 6bbe
00000190: 3350 5c36 bd76 85bd a9d2 98bd eca7 21be
000001a0: fdea acbd ec24 933a b3fb a43c 0f48 bbbc
000001b0: 6579 b53d 5d6c fc3d 1e59 8d3d 7515 d8ba
000001c0: 7fcc 313a aced d8bd 0add 473e a255 afbc
000001d0: 495f ccbd e0cc 2e3e 81f2 723d 80f8 633e
000001e0: 443d 043e 678c e6bd ddb2 673e a611 7e3e
000001f0: 0ad8 25bd 3abb b03e 2747 b8bd c6ce db3d
00000200: e32a 733e a7e8 093c d3c9 3c3d 7359 023d
00000210: 97d6 2b3e 2d5f 213d e30a aebd ea51 13be
00000220: 1b68 4cbe 654f 073e 82ce 01bd f4a5 5a3e
00000230: 8024 55bd af45 143c 8450 14be 035d 1b3c
00000240: 467b 273c 9219 203e d241 1e3c f1cb 623e
00000250: 108a dabc d43c 533e 2a0b 66be f7a9 8e3e
00000260: 9fba 3dbe 4774 fa3d 61a0 61bd c9db 95bd
00000270: f298 8836 d3c9 1abe ca8d 30be 7130 603e
00000280: 824f f6bc b102 c8bd 3322 c23d e9f0 a33e
00000290: 06b9 0a3e a643 2b3d c775 06be 382d 5bbe
000002a0: 0a85 b7bd ad48 b03d cb39 653d 89f2 0cbe
000002b0: ec56 79bd 00ba 493d e402 03bd 83bf 9abd
000002c0: e31b 1f3d 0f7b 5d3e 4a0c 2ebc 998b cf3d
000002d0: 536a 343d 4cf8 3a3e f5c2 973c c954 e03c
000002e0: 80b5 6c3e 8620 143e 9f2d bf3c f8be 563d
000002f0: 8892 e6bd ad7b 20be 380c 8abd 21cb 6bbe
00000300: e2f7 47bd 2794 f2bc a6ac 2f3e e377 403d
00000310: 8c9d 6e3c e745 553e d22b b73d c3b3 a3bc
00000320: b9b9 3b3e 7c20 1d3e d0d7 98bc 122c 093e
00000330: 2168 0bbe c833 333b 5068 623e 176f 653d
00000340: 247f 023d 2d33 2cbc 5907 c73d 4fa2 903e
00000350: b8ac fe3b d066 b93d 1eda bebb 48b2 033e
00000360: 0051 12be 0e56 9c3b 82ed 6f3e 7f91 753e
00000370: e2bd cabc e03e 13be 09ba 41bc bf5d 3c3d
00000380: fdd1 9dbc dbe3 933e 81cc b8bd 7521 363e
00000390: 05d7 8838 c29b 043e 530d b93d 3d02 44bc
000003a0: b6aa 61bd eac0 553e c083 1e3c ea24 fd3d
000003b0: 1a78 c7bd cf98 e53d e906 16b5 a2db c2bd
000003c0: 0d6b 2e3d 2074 09be c2d4 593e 0d44 1e3d
000003d0: ce0e c6bd 7cbb 423e 0050 81be 37e0 46be
000003e0: e372 2c36 349e 5d3e 74b7 bb3d e7ce 51bd
000003f0: ea2f 9035 7275 563e 343a 65bc f717 4bbe
