models/music_hetero_gnn_model.pth (torch, 408909 bytes, 12 tensors)

conv1.convs.<track___same_genre___track>.bias f4 [64]
0	0x00000000	0.0
1	0x3b9977bb	0.0046834624
2	0xbc1068b4	-0.008814026
3	0x00000000	0.0
4	0x3401bf5c	1.2083677e-07
5	0xba3fd7bc	-0.00073182187
6	0xba004601	-0.0004893244
7	0x3b4f8fe9	0.003167147
8	0x33a41c0a	7.6419454e-08
9	0x00000000	0.0
10	0x3b52d3db	0.0032169733
11	0xbb34c245	-0.0027581614
12	0x3ba6a327	0.0050853672
13	0xbac0fe9d	-0.0014724318
14	0x3c572d4e	0.01313336
15	0x388db4d1	6.7570836e-05
16	0xbc47ebad	-0.012202186
17	0xb4844d2d	-2.464307e-07
18	0x00000000	0.0
19	0xbaa34b44	-0.0012458344
20	0x00000000	0.0
21	0xbc07a430	-0.008278891
22	0xbba13e1c	-0.004920734
23	0xbbcf9379	-0.006334719
24	0xba509298	-0.00079564145
25	0xbc200292	-0.009766238
26	0xbc63ca90	-0.013903275
27	0x3c5ae060	0.013359159
28	0xbb0f05d4	-0.0021823542
29	0xbb49db8e	-0.003080103
30	0x3963e42b	0.00021733406
31	0xbc203cf8	-0.009780161
32	0x3b82dddb	0.0039937324
33	0xbae9c915	-0.0017836416
34	0xbbb8ffb1	-0.005645715
35	0xbbad1b5e	-0.0052828034
36	0xba39fc68	-0.00070948014
37	0x00000000	0.0
38	0xbae221a1	-0.0017252454
39	0xb71b2854	-9.24811e-06
40	0xbbd87d19	-0.0066067097
41	0xbb10f95a	-0.0022121281
42	0xbba0cb2a	-0.0049070315
43	0x3b3c9cb0	0.0028779916
44	0x327905b0	1.4495001e-08
45	0xbb1f3608	-0.002429368
46	0x00000000	0.0
47	0x3b534ff6	0.0032243705
48	0xba8c3feb	-0.0010700201
49	0x3b90ac4a	0.0044150697
50	0x3a443863	0.0007485209
51	0x00000000	0.0
52	0x00000000	0.0
53	0x3c6701b4	0.014099527
54	0x00000000	0.0
55	0x3a518d26	0.000799375
56	0x3aef4475	0.0018254655
57	0xbb6f6798	-0.0036530253
58	0xbb74f844	-0.0037379423
59	0x3b4765ea	0.0030425736
60	0x33d7d2f1	1.0050088e-07
61	0xb81874b5	-3.6348316e-05
62	0x32711d02	1.4034642e-08
63	0x00000000	0.0

conv1.convs.<track___same_genre___track>.lin.weight f4 [64, 518]
0	0xb51be19a	-5.8070293e-07
1	0x36120689	2.17595e-06
2	0xb4222d5f	-1.5103932e-07
3	0xb6bbaa97	-5.5928936e-06
4	0xbae10934	-0.001716888
5	0x353e4b4f	7.0890104e-07
6	0x37c20617	2.3129438e-05
7	0x36a9d63a	5.0615317e-06
8	0xb8ef6472	-0.000114151175
9	0xb564ff74	-8.530835e-07
10	0xb31aabd0	-3.601218e-08
11	0x39ab5eae	0.00032686203
12	0x3363aeb6	5.3011455e-08
13	0xb46fe64d	-2.2342392e-07
14	0xb58d342f	-1.0520506e-06
15	0xb2a37ae6	-1.9031585e-08
16	0xb4ab87d7	-3.1950069e-07
17	0xb6afbb39	-5.237202e-06
18	0x36c50733	5.8718956e-06
19	0xb6c4e27c	-5.8676214e-06
20	0xb5a058b4	-1.1946745e-06
21	0x384e2405	4.9147773e-05
22	0xb87ddd7c	-6.0526174e-05
23	0xb784aeda	-1.5817048e-05
24	0x37c18299	2.3068207e-05
25	0xb4982851	-2.834154e-07
26	0x39364004	0.0001738072
27	0xb4a6f075	-3.1094865e-07
28	0xb6bb6566	-5.5848386e-06
29	0xb599d6b4	-1.1461875e-06
30	0x354dc6aa	7.6657545e-07
31	0xb5131560	-5.479287e-07
32	0xb7bc3a29	-2.243843e-05
33	0x33f7172b	1.1506048e-07
34	0xb607342a	-2.014693e-06
35	0x36ee9671	7.1104664e-06
36	0x34b23315	3.319225e-07
37	0x36a12d13	4.8034212e-06
38	0x34d59ade	3.9787022e-07
39	0x36c5c55c	5.894033e-06
40	0x3a231db9	0.00062223856
41	0xb5592996	-8.0899315e-07
42	0xb43726de	-1.7057343e-07
43	0x37b608e7	2.1700236e-05
44	0x37acc0f2	2.0593845e-05
45	0x3a615f92	0.000859731
46	0x3ab6e249	0.0013952936
47	0xb3491e9f	-4.682681e-08
48	0x35dd0588	1.6467393e-06
49	0xb9a7edb1	-0.00032029816
50	0x355e3eec	8.279301e-07
51	0xb6ac4651	-5.1341854e-06
52	0x32e3a5da	2.6501699e-08
53	0x330fdff4	3.3498466e-08
54	0xb7ac3c97	-2.0532212e-05
55	0x33a86fa8	7.84342e-08
56	0x334088c9	4.482789e-08
57	0xb7c37f74	-2.3305161e-05
58	0x336fb376	5.5809743e-08
59	0x340c32fc	1.3057064e-07
60	0xb739bda2	-1.1071012e-05
61	0x359a8743	1.151326e-06
62	0x3633783b	2.6743062e-06
63	0x39af7a0e	0.0003346954
64	0x368f176b	4.2644583e-06
65	0x37874fbe	1.6130387e-05
66	0x329ead03	1.8472297e-08
67	0xb4e6ef8a	-4.3015126e-07
68	0xb5e2938f	-1.6881257e-06
69	0xb6b540fb	-5.401785e-06
70	0xb9890a7f	-0.00026138496
71	0xb4b19042	-3.307378e-07
72	0xba2db689	-0.0006626626
73	0xba873188	-0.0010314444
74	0xb993ee6f	-0.00028215672
75	0x32267e30	9.691163e-09
76	0x33d29fdd	9.807966e-08
77	0x3387b87a	6.3199835e-08
78	0xb553c362	-7.8887945e-07
79	0xb1940cc6	-4.308819e-09
80	0x37c076b2	2.2943455e-05
81	0xb5a00f87	-1.1925448e-06
82	0xb9574de9	-0.00020533022
83	0x35d59357	1.5912618e-06
84	0x35747323	9.106463e-07
85	0x361ad7e1	2.3073446e-06
86	0xb4344250	-1.678793e-07
87	0xb6bd714c	-5.6458284e-06
88	0xb5204936	-5.971118e-07
89	0x368d835d	4.21742e-06
90	0x30e90ef0	1.6957227e-09
91	0xb43f87ca	-1.7837661e-07
92	0x34e23b90	4.2139118e-07
93	0x38a28fb1	7.7515266e-05
94	0x39b9747b	0.00035372734
95	0xb4b24c17	-3.3210446e-07
96	0xb9d02fcf	-0.00039708472
97	0xbad8ba4a	-0.0016535011
98	0xb35a7714	-5.086538e-08
99	0x3747dd65	1.1912872e-05
100	0xb38374a7	-6.121382e-08
101	0x379c12ca	1.8605399e-05
102	0x3a44a52e	0.00075014203
103	0xb43539bc	-1.6877942e-07
104	0xb4130060	-1.3690578e-07
105	0xb6a85a5d	-5.01731e-06
106	0xb615a9f3	-2.2301654e-06
107	0xb4187e28	-1.4201999e-07
108	0x35b2f050	1.3331974e-06
109	0x39ae6779	0.0003326496
110	0x34e19ae2	4.2022208e-07
111	0x3a394356	0.0007067224
112	0xb49f8a3d	-2.971664e-07
113	0xb5d30d23	-1.5724548e-06
114	0x36da70ee	6.510053e-06
115	0x37b9fff5	2.2172908e-05
116	0xb5df2e85	-1.6628334e-06
117	0x36088f12	2.0348857e-06
118	0xb3a21ea1	-7.549284e-08
119	0x3762b0be	1.3511801e-05
120	0xb486d194	-2.5111933e-07
121	0x393a858e	0.00017788095
122	0xb728a9da	-1.0053127e-05
123	0xb571cbca	-9.007605e-07
124	0xb60a3d1c	-2.0599173e-06
125	0xb9a32030	-0.00031113764
126	0x35e1bf6d	1.6819519e-06
127	0x375a30e5	1.3005197e-05
128	0x38090cc4	3.2675234e-05
129	0x391867cc	0.00014534517
130	0xb79de506	-1.8822506e-05
131	0xba8e2241	-0.0010843949
132	0xb6a540d5	-4.9249306e-06
133	0x3a2b4848	0.0006533903
134	0x359f444b	1.1866299e-06
135	0xb50708bb	-5.0304124e-07
136	0xb50fe904	-5.3610734e-07
137	0xb492d329	-2.7348258e-07
138	0xb7c3da14	-2.3347362e-05
139	0x3436bafe	1.7018098e-07
140	0x3ac855f2	0.0015284403
141	0xb8c1c5de	-9.239813e-05
142	0xb6229f68	-2.4232668e-06
143	0x39337580	0.00017114542
144	0x3684154e	3.9363867e-06
145	0x3482cd27	2.4363655e-07
146	0x33820d1b	6.0559806e-08
147	0x39ef7349	0.00045671526
148	0x396f1d46	0.00022803721
149	0x35a409f5	1.222185e-06
150	0x363f24e4	2.848269e-06
151	0x34adcf2d	3.23745e-07
152	0xba74efb2	-0.0009343579
153	0xb5ce9ed2	-1.5394419e-06
154	0x3781bf57	1.5467098e-05
155	0x33a01f37	7.4562585e-08
156	0x368c599d	4.1827575e-06
157	0x35c3cc43	1.458808e-06
158	0x3518264b	5.6680136e-07
159	0xb633a9da	-2.6771945e-06
160	0xb3950e04	-6.9409026e-08
161	0x3462a340	2.110728e-07
162	0xb2ed9c3e	-2.7661482e-08
163	0xb9181123	-0.00014502234
164	0xb7b3d1b9	-2.1436123e-05
165	0xb71b987e	-9.274225e-06
166	0xb4738b4c	-2.2681814e-07
167	0xb3df9215	-1.0410819e-07
168	0x35edf74a	1.7729847e-06
169	0xb3ff2f1a	-1.18829306e-07
170	0xb3da3c3e	-1.0162374e-07
171	0xb441996d	-1.8030342e-07
172	0xb2a038ca	-1.8652276e-08
173	0xb4f33fba	-4.5308644e-07
174	0x34858419	2.4869294e-07
175	0x35e248a6	1.6859456e-06
176	0xb6bfa089	-5.7109323e-06
177	0xb56e7a0a	-8.88395e-07
178	0xb2091d14	-7.981061e-09
179	0x334f1908	4.821871e-08
180	0xb4e2a543	-4.2216024e-07
181	0x356360d4	8.4704993e-07
182	0xb62b5587	-2.553077e-06
183	0x33f17bed	1.1244979e-07
184	0xb69b360c	-4.625652e-06
185	0xb90d0140	-0.00013447274
186	0xb551bf00	-7.813651e-07
187	0x33f60fe9	1.1458162e-07
188	0x34e33cb2	4.2326207e-07
189	0x3a49891e	0.00076879736
190	0xb6c5abbe	-5.891051e-06
191	0xb4fb9ed3	-4.6867953e-07
192	0xb426410e	-1.5483621e-07
193	0xb35b1670	-5.1010318e-08
194	0x34c57a39	3.6783038e-07
195	0x375c1d19	1.3119797e-05
196	0xb6abd4e8	-5.1209827e-06
197	0xbadd94fe	-0.0016905365
198	0xb4383f6a	-1.7159405e-07
199	0xb4d54aac	-3.9728673e-07
200	0xb7b4be18	-2.1546191e-05
201	0xb5b6ced7	-1.3620255e-06
202	0x3290a138	1.683712e-08
203	0x36225e77	2.4194867e-06
204	0xb925d3a8	-0.00015814474
205	0xb561b728	-8.408556e-07
206	0x343d8420	1.7650063e-07
207	0x3aaac9f4	0.0013030157
208	0x3313dd02	3.442711e-08
209	0x33db446e	1.02104295e-07
210	0xb9b4b608	-0.000344679
211	0x331bd148	3.627909e-08
212	0xba4aa2ed	-0.00077299663
213	0x36815955	3.854899e-06
214	0xb465dcf2	-2.1407666e-07
215	0x349cb0f4	2.9186015e-07
216	0x34ad73d0	3.2308026e-07
217	0xb2ec99e8	-2.7544004e-08
218	0x36147135	2.2119614e-06
219	0x39554518	0.00020339002
220	0x388ebc8a	6.806206e-05
221	0x390aa891	0.00013223501
222	0xb40a1e8e	-1.2863367e-07
223	0x366a038b	3.487078e-06
224	0xb8a5af56	-7.900472e-05
225	0xb53e0ca1	-7.0798893e-07
226	0x351d4cc4	5.8598766e-07
227	0x33265879	3.8730352e-08
228	0xb1fa3440	-7.2818978e-09
229	0x3a9cfcf2	0.0011977239
230	0xb482c64e	-2.4358673e-07
231	0x3726e4a1	9.947603e-06
232	0x33e377f0	1.0592328e-07
233	0xb64d336b	-3.057731e-06
234	0xb551c06e	-7.813859e-07
235	0x35e28b94	1.6878935e-06
236	0xb91d413f	-0.00014996993
237	0xb4180b7f	-1.4160285e-07
238	0x3525dc44	6.178782e-07
239	0x355f9ca9	8.3301944e-07
240	0x372183eb	9.627062e-06
241	0xb3ae8e71	-8.128416e-08
242	0xba432877	-0.00074446894
243	0xb6a011ee	-4.770459e-06
244	0xb8f57b78	-0.00011705508
245	0xb2cc74f0	-2.3801903e-08
246	0x35e1de6c	1.682854e-06
247	0xb5245105	-6.121266e-07
248	0x3636cf6e	2.7240853e-06
249	0xb51be307	-5.807237e-07
250	0xb27a7d00	-1.4580337e-08
251	0xb7b80e9b	-2.194131e-05
252	0xb61836ec	-2.2681734e-06
253	0x35746a59	9.105184e-07
254	0xb2eb8919	-2.7419945e-08
255	0xb548d5d0	-7.4816944e-07

conv1.convs.<track___same_artist___track>.bias f4 [64]
0	0x00000000	0.0
1	0x3b9977bb	0.0046834624
2	0xbc1068b4	-0.008814026
3	0x00000000	0.0
4	0x3401bf5c	1.2083677e-07
5	0xba3fd7bc	-0.00073182187
6	0xba004601	-0.0004893244
7	0x3b4f8fe9	0.003167147
8	0x33a41c0a	7.6419454e-08
9	0x00000000	0.0
10	0x3b52d3db	0.0032169733
11	0xbb34c245	-0.0027581614
12	0x3ba6a327	0.0050853672
13	0xbac0fe9d	-0.0014724318
14	0x3c572d4e	0.01313336
15	0x388db4d1	6.7570836e-05
16	0xbc47ebad	-0.012202186
17	0xb4844d2d	-2.464307e-07
18	0x00000000	0.0
19	0xbaa34b44	-0.0012458344
20	0x00000000	0.0
21	0xbc07a430	-0.008278891
22	0xbba13e1c	-0.004920734
23	0xbbcf9379	-0.006334719
24	0xba509298	-0.00079564145
25	0xbc200292	-0.009766238
26	0xbc63ca90	-0.013903275
27	0x3c5ae060	0.013359159
28	0xbb0f05d4	-0.0021823542
29	0xbb49db8e	-0.003080103
30	0x3963e42b	0.00021733406
31	0xbc203cf8	-0.009780161
32	0x3b82dddb	0.0039937324
33	0xbae9c915	-0.0017836416
34	0xbbb8ffb1	-0.005645715
35	0xbbad1b5e	-0.0052828034
36	0xba39fc68	-0.00070948014
37	0x00000000	0.0
38	0xbae221a1	-0.0017252454
39	0xb71b2854	-9.24811e-06
40	0xbbd87d19	-0.0066067097
41	0xbb10f95a	-0.0022121281
42	0xbba0cb2a	-0.0049070315
43	0x3b3c9cb0	0.0028779916
44	0x327905b0	1.4495001e-08
45	0xbb1f3608	-0.002429368
46	0x00000000	0.0
47	0x3b534ff6	0.0032243705
48	0xba8c3feb	-0.0010700201
49	0x3b90ac4a	0.0044150697
50	0x3a443863	0.0007485209
51	0x00000000	0.0
52	0x00000000	0.0
53	0x3c6701b4	0.014099527
54	0x00000000	0.0
55	0x3a518d26	0.000799375
56	0x3aef4475	0.0018254655
57	0xbb6f6798	-0.0036530253
58	0xbb74f844	-0.0037379423
59	0x3b4765ea	0.0030425736
60	0x33d7d2f1	1.0050088e-07
61	0xb81874b5	-3.6348316e-05
62	0x32711d02	1.4034642e-08
63	0x00000000	0.0

conv1.convs.<track___same_artist___track>.lin.weight f4 [64, 518]
0	0x3a8c2814	0.0010693097
1	0xb3b72a2e	-8.529274e-08
2	0x33cc5962	9.515749e-08
3	0xb778343c	-1.4794114e-05
4	0xb686d4d3	-4.018287e-06
5	0x35e7d23c	1.7272027e-06
6	0xb4100140	-1.34115e-07
7	0x34de6041	4.1420756e-07
8	0xb9dcf6cb	-0.00042145545
9	0xb606f241	-2.0108566e-06
10	0x35d951f3	1.619161e-06
11	0x3360060c	5.2159564e-08
12	0x35c40622	1.4604923e-06
13	0x3a44c752	0.00075065077
14	0x39845919	0.00025243385
15	0x3367c702	5.3964875e-08
16	0xb4e683bf	-4.2936696e-07
17	0xb6334f44	-2.6719217e-06
18	0xb5eb6562	-1.7538371e-06
19	0x35cd1e58	1.5282521e-06
20	0xba01009e	-0.00049210514
21	0x35025845	4.8557223e-07
22	0x359c0a46	1.1625896e-06
23	0xb30e89d0	-3.318729e-08
24	0x3977a18a	0.00023615934
25	0x34a74394	3.1155344e-07
26	0xb41b789f	-1.4479382e-07
27	0x37be70a6	2.2702221e-05
28	0xb483307a	-2.4435923e-07
29	0xb5dbee8d	-1.6386199e-06
30	0xb651b5b2	-3.1249187e-06
31	0x35bffb20	1.4303696e-06
32	0x35a543f9	1.2313241e-06
33	0x36429881	2.8997022e-06
34	0xb567eaf0	-8.6396085e-07
35	0x359e4f5e	1.1795016e-06
36	0x35182cd8	5.668967e-07
37	0x355689fa	7.9921995e-07
38	0x3399e6eb	7.1666214e-08
39	0xb53fef97	-7.1501694e-07
40	0xb9369b31	-0.00017414686
41	0x35c0c16f	1.4361411e-06
42	0x35cf8c84	1.5463597e-06
43	0x349a3419	2.872264e-07
44	0xb7ade391	-2.0729176e-05
45	0x34f7526c	4.6067305e-07
46	0xb60d3c4e	-2.104574e-06
47	0xb484bc2d	-2.4723832e-07
48	0x35df0d06	1.6618585e-06
49	0x36c459e0	5.851718e-06
50	0xb8a55c10	-7.884961e-05
51	0xb7c1b06d	-2.3089548e-05
52	0x35c52c7e	1.4690593e-06
53	0x3a3ac52c	0.0007124718
54	0x359de5d8	1.1764305e-06
55	0xb6352a70	-2.6995804e-06
56	0xb567f616	-8.641231e-07
57	0xb6010a2e	-1.9228423e-06
58	0x36c477de	5.8552096e-06
59	0x378ddf72	1.691256e-05
60	0x33a0a830	7.481174e-08
61	0x36afa73f	5.2348764e-06
62	0xb93f00be	-0.00018215456
63	0xb6f85021	-7.400304e-06
64	0x394c4188	0.00019479368
65	0xb50f7bfe	-5.3452084e-07
66	0xb9e2bcce	-0.0004324675
67	0xb788389e	-1.6238828e-05
68	0xb45642e5	-1.9954639e-07
69	0x3aaf492e	0.001337325
70	0x395e7e22	0.00021218558
71	0x354322b5	7.2693666e-07
72	0xb5424ebe	-7.2385217e-07
73	0xb480f861	-2.4022577e-07
74	0x36c3d796	5.8365504e-06
75	0x36c4ac38	5.861304e-06
76	0xb50b975f	-5.200181e-07
77	0x3491dd27	2.7169264e-07
78	0xb6be6db0	-5.6752106e-06
79	0xb9b05dca	-0.00033639214
80	0x36351d4e	2.698816e-06
81	0x3604cfb3	1.979043e-06
82	0x37b56531	2.1624002e-05
83	0x35432b4e	7.270618e-07
84	0xb98cfc87	-0.00026891028
85	0xbac0bc85	-0.0014704621
86	0xb7c6563a	-2.3643592e-05
87	0xba33be25	-0.0006856642
88	0x3a4ec206	0.0007887188
89	0x34f068a2	4.4779614e-07
90	0xb62f26a4	-2.6099524e-06
91	0x37b75555	2.1855036e-05
92	0xb62a8d77	-2.5414317e-06
93	0xb53decb7	-7.075245e-07
94	0x3303af54	3.0660274e-08
95	0x3a24b17f	0.00062825525
96	0x3a2a2c7d	0.00064916146
97	0x35988ff6	1.1366781e-06
98	0x3471e3dc	2.2527769e-07
99	0x35111882	5.4052373e-07
100	0x37b90306	2.2055126e-05
101	0x36c4f8b9	5.8702103e-06
102	0xb5672db5	-8.612072e-07
103	0xb406bb6a	-1.2547903e-07
104	0x34e0522c	4.178304e-07
105	0xb3b66e33	-8.4950806e-08
106	0x363732de	2.7298734e-06
107	0xb7d9f126	-2.598071e-05
108	0xba5eae2f	-0.00084945833
109	0x3549b7d0	7.514582e-07
110	0x32bbbb10	2.1854731e-08
111	0xb4bc5bcd	-3.5084523e-07
112	0xb6b80013	-5.483636e-06
113	0x33d0124e	9.6890844e-08
114	0xb53ce6f6	-7.037155e-07
115	0x3ae0d4dc	0.0017153281
116	0xb632a645	-2.6620849e-06
117	0x35838727	9.799595e-07
118	0xb6e708a4	-6.8853424e-06
119	0x36bb78a1	5.5870773e-06
120	0xb62bd597	-2.5605311e-06
121	0x33762026	5.7305577e-08
122	0xbabb09c2	-0.0014269876
123	0x35cc0cba	1.5202888e-06
124	0x3781d5ec	1.5477613e-05
125	0x3541339f	7.197322e-07
126	0x398ac845	0.00026470624
127	0xb6033039	-1.954859e-06
128	0xb3883c9a	-6.344017e-08
129	0x3a282539	0.0006414238
130	0x3ab5272e	0.001382088
131	0x392b07b9	0.00016310708
132	0x38bc6f3a	8.985256e-05
133	0x3ad4e92d	0.0016243808
134	0x39d30ebf	0.00040256043
135	0x36dd7f66	6.6011444e-06
136	0x34cda4f4	3.8304245e-07
137	0xb68d1e38	-4.2056454e-06
138	0xb1d46af8	-6.182173e-09
139	0x355619dd	7.975885e-07
140	0xb697f115	-4.5282163e-06
141	0x36faa8b4	7.47022e-06
142	0x37077f99	8.076336e-06
143	0x3a014a8b	0.0004932067
144	0xb7a47e9c	-1.960928e-05
145	0xb3012fac	-3.007851e-08
146	0xb68169f7	-3.8568355e-06
147	0x33e7279a	1.0763979e-07
148	0xb6a322f0	-4.861846e-06
149	0xb3530f80	-4.9141363e-08
150	0xb6712d24	-3.5938074e-06
151	0xb7ac2d97	-2.0525227e-05
152	0xba6af152	-0.0008962351
153	0x361b1fd4	2.3115326e-06
154	0x35e2002b	1.6838361e-06
155	0x365ee0d9	3.3211456e-06
156	0x33eea58c	1.11128514e-07
157	0x362ec12e	2.6040466e-06
158	0xb378e9c0	-5.7954594e-08
159	0x35746087	9.103755e-07
160	0x3abaafce	0.0014243068
161	0x335881b8	5.0409398e-08
162	0x3a943d05	0.0011309689
163	0xb49536fe	-2.7793425e-07
164	0xb4cad3d8	-3.777957e-07
165	0xb67936a7	-3.7135703e-06
166	0xb444eeb0	-1.8340756e-07
167	0xb6fc4958	-7.5187236e-06
168	0xb7c5fc76	-2.3601791e-05
169	0xb62f8137	-2.6152245e-06
170	0x3349dda6	4.7000547e-08
171	0x37926749	1.7452652e-05
172	0xb2e03718	-2.6102086e-08
173	0x3aa11f3b	0.0012292633
174	0x36db0206	6.526944e-06
175	0xb803b2a3	-3.1399202e-05
176	0xb6bad8e0	-5.5684795e-06
177	0xb2545017	-1.2358234e-08
178	0xba3ac211	-0.0007124255
179	0x31a29ed4	4.732877e-09
180	0xb537cc05	-6.84697e-07
181	0x359058c8	1.0754675e-06
182	0xb6656528	-3.418254e-06
183	0xb625e2c1	-2.4718904e-06
184	0xb439422a	-1.7253538e-07
185	0x3a0f0f91	0.00054573367
186	0xb6803058	-3.820325e-06
187	0x378c0c6b	1.6695083e-05
188	0x373b6eac	1.1171836e-05
189	0xb6922bd4	-4.3562413e-06
190	0x348f39cf	2.6677887e-07
191	0x359c08e6	1.1625496e-06
192	0x350ca86c	5.239915e-07
193	0xb4d85aa1	-4.0299076e-07
194	0xb68abb64	-4.1345356e-06
195	0xb62ada90	-2.5459194e-06
196	0xb5d6ce4f	-1.6004286e-06
197	0x3a15ec2c	0.0005719091
198	0x3412e856	1.3681833e-07
199	0x361098b9	2.1546568e-06
200	0x38400416	4.5780173e-05
201	0x35bf83a1	1.4268918e-06
202	0x363f1a34	2.847647e-06
203	0x37a318fa	1.9442745e-05
204	0x3a616546	0.000859816
205	0x37bd9b42	2.2602853e-05
206	0xb51f1571	-5.9263317e-07
207	0xb53403ae	-6.706058e-07
208	0xb8905623	-6.882499e-05
209	0x36a23e13	4.8352026e-06
210	0x3570bdd0	8.968318e-07
211	0x3540fb62	7.1891384e-07
212	0xb5e96a24	-1.7390744e-06
213	0xb59fdded	-1.1911012e-06
214	0xb4c58198	-3.67884e-07
215	0x3a52d92a	0.0008043224
216	0x3397c785	7.067778e-08
217	0xb3b742a8	-8.533726e-08
218	0xb495eb24	-2.79245e-07
219	0x362c8bbf	2.571134e-06
220	0xb3e9c7c1	-1.0886243e-07
221	0x3a310a60	0.000675356
222	0xb3962a0f	-6.99257e-08
223	0x36bab7f7	5.5646483e-06
224	0xb5f365ad	-1.8134502e-06
225	0x34c5e140	3.6858e-07
226	0x3ac9e41c	0.0015403065
227	0xb41f49a8	-1.4834825e-07
228	0x35ba9dd4	1.3904014e-06
229	0x3598dbc2	1.138884e-06
230	0xb48dff96	-2.644926e-07
231	0x34ac4f86	3.2095357e-07
232	0xb82f7a94	-4.183741e-05
233	0x34e60eed	4.2851698e-07
234	0xb5322175	-6.6358854e-07
235	0x34a1bb2d	3.0124775e-07
236	0xb7b327d2	-2.1357006e-05
237	0x3643509c	2.9104185e-06
238	0x34c0c350	3.5904895e-07
239	0xb6c54be0	-5.8798905e-06
240	0x328e51d0	1.656818e-08
241	0xb394374b	-6.901845e-08
242	0xb7a0aa87	-1.9152894e-05
243	0x3635cfd3	2.7092071e-06
244	0x3816d933	3.596507e-05
245	0x34714b4e	2.247227e-07
246	0x355c67b1	8.210728e-07
247	0xb4504c34	-1.9399232e-07
248	0xb4cb61ec	-3.7882944e-07
249	0x35b7f1b4	1.3704907e-06
250	0x37bba070	2.2366847e-05
251	0xb7b297e4	-2.1289983e-05
252	0x3ab7c160	0.0014019422
253	0x3a020f94	0.0004961428
254	0xb80db8c4	-3.3789096e-05
255	0xb8c1c39c	-9.239392e-05

conv1.convs.<track___same_album___track>.bias f4 [64]
0	0x00000000	0.0
1	0x3b9977bb	0.0046834624
2	0xbc1068b4	-0.008814026
3	0x00000000	0.0
4	0x3401bf5c	1.2083677e-07
5	0xba3fd7bc	-0.00073182187
6	0xba004601	-0.0004893244
7	0x3b4f8fe9	0.003167147
8	0x33a41c0a	7.6419454e-08
9	0x00000000	0.0
10	0x3b52d3db	0.0032169733
11	0xbb34c245	-0.0027581614
12	0x3ba6a327	0.0050853672
13	0xbac0fe9d	-0.0014724318
14	0x3c572d4e	0.01313336
15	0x388db4d1	6.7570836e-05
16	0xbc47ebad	-0.012202186
17	0xb4844d2d	-2.464307e-07
18	0x00000000	0.0
19	0xbaa34b44	-0.0012458344
20	0x00000000	0.0
21	0xbc07a430	-0.008278891
22	0xbba13e1c	-0.004920734
23	0xbbcf9379	-0.006334719
24	0xba509298	-0.00079564145
25	0xbc200292	-0.009766238
26	0xbc63ca90	-0.013903275
27	0x3c5ae060	0.013359159
28	0xbb0f05d4	-0.0021823542
29	0xbb49db8e	-0.003080103
30	0x3963e42b	0.00021733406
31	0xbc203cf8	-0.009780161
32	0x3b82dddb	0.0039937324
33	0xbae9c915	-0.0017836416
34	0xbbb8ffb1	-0.005645715
35	0xbbad1b5e	-0.0052828034
36	0xba39fc68	-0.00070948014
37	0x00000000	0.0
38	0xbae221a1	-0.0017252454
39	0xb71b2854	-9.24811e-06
40	0xbbd87d19	-0.0066067097
41	0xbb10f95a	-0.0022121281
42	0xbba0cb2a	-0.0049070315
43	0x3b3c9cb0	0.0028779916
44	0x327905b0	1.4495001e-08
45	0xbb1f3608	-0.002429368
46	0x00000000	0.0
47	0x3b534ff6	0.0032243705
48	0xba8c3feb	-0.0010700201
49	0x3b90ac4a	0.0044150697
50	0x3a443863	0.0007485209
51	0x00000000	0.0
52	0x00000000	0.0
53	0x3c6701b4	0.014099527
54	0x00000000	0.0
55	0x3a518d26	0.000799375
56	0x3aef4475	0.0018254655
57	0xbb6f6798	-0.0036530253
58	0xbb74f844	-0.0037379423
59	0x3b4765ea	0.0030425736
60	0x33d7d2f1	1.0050088e-07
61	0xb81874b5	-3.6348316e-05
62	0x32711d02	1.4034642e-08
63	0x00000000	0.0

conv1.convs.<track___same_album___track>.lin.weight f4 [64, 518]
0	0xb48bcf52	-2.6041613e-07
1	0xb64c3176	-3.042716e-06
2	0x368f306a	4.2673682e-06
3	0x353e8c32	7.0984527e-07
4	0x31d3a9ae	6.1601986e-09
5	0x3ad48e7d	0.0016216781
6	0x3396c6f0	7.021106e-08
7	0xb9e725d4	-0.00044087938
8	0x34050a6c	1.2390382e-07
9	0x3754f401	1.2692996e-05
10	0x39168770	0.00014355569
11	0x354d4079	7.646227e-07
12	0xb5813116	-9.625535e-07
13	0x34e35711	4.2345394e-07
14	0xba180a87	-0.00057999085
15	0xb523ca84	-6.101693e-07
16	0xba8700a0	-0.0010299869
17	0xb3769e16	-5.7420117e-08
18	0xb31eecb6	-3.700253e-08
19	0x34a13ba2	3.0031975e-07
20	0xb59b2415	-1.1558901e-06
21	0xb7373e2e	-1.0922127e-05
22	0xb49297f4	-2.730518e-07
23	0xb637b1e0	-2.7372662e-06
24	0x39090bb9	0.00013069705
25	0xb92e0569	-0.00016595949
26	0x363171d9	2.6441323e-06
27	0x34454448	1.8371895e-07
28	0x3500689f	4.783596e-07
29	0xb2084688	-7.932279e-09
30	0xb9212d9e	-0.0001537115
31	0xb7289766	-1.00488305e-05
32	0x3a8470f2	0.0010104461
33	0x340947a7	1.2785186e-07
34	0x3598f92a	1.1397399e-06
35	0xb68b32d2	-4.148439e-06
36	0x33840088	6.1468256e-08
37	0x357acb3e	9.3428014e-07
38	0x37c34345	2.3277136e-05
39	0xb4c8ad77	-3.7379115e-07
40	0xb094b280	-1.081915e-09
41	0x33509f4a	4.8573646e-08
42	0x350f2a34	5.3333065e-07
43	0x352449e8	6.120231e-07
44	0xb5991d6b	-1.140795e-06
45	0xb774509d	-1.4562303e-05
46	0xbab4d529	-0.0013796437
47	0xb7f7a12a	-2.9519742e-05
48	0xb70f5849	-8.54402e-06
49	0x35c6e1f9	1.4817916e-06
50	0x35186810	5.6775843e-07
51	0x33348034	4.2026116e-08
52	0x359fc1bc	1.1902807e-06
53	0x3692cfa3	4.375311e-06
54	0x352c5e1a	6.421193e-07
55	0x34a7fc2f	3.1289662e-07
56	0xb571c1f3	-9.006173e-07
57	0xb528aff5	-6.284093e-07
58	0x3633fd0d	2.6820373e-06
59	0x346cd14e	2.2055357e-07
60	0xb6360bc4	-2.7126962e-06
61	0xb50319da	-4.883892e-07
62	0xb964926f	-0.00021798325
63	0x344a66e3	1.8850146e-07
64	0xbab54b84	-0.001383171
65	0x38e63307	0.00010976759
66	0x3ab16336	0.0013533595
67	0x3573c540	9.081159e-07
68	0xb631e1db	-2.650652e-06
69	0xba90e686	-0.001105503
70	0x3791e50b	1.7392003e-05
71	0xb4c9d855	-3.759657e-07
72	0xb95d38db	-0.00021097383
73	0xb7b7b6cd	-2.1900423e-05
74	0x32496a0c	1.1723852e-08
75	0xb5d4097d	-1.5797992e-06
76	0xb79d6633	-1.8763449e-05
77	0x3a24d50d	0.00062878506
78	0x3647c8f2	2.9770276e-06
79	0x30afa7a0	1.2780568e-09
80	0x3698e8d5	4.557058e-06
81	0xb59e147f	-1.1777882e-06
82	0xb63e12e3	-2.83232e-06
83	0xb8de1aa1	-0.00010590745
84	0x33bb95c0	8.7351054e-08
85	0x35e25e60	1.6865779e-06
86	0x3542348d	7.2347103e-07
87	0xb56906ba	-8.680905e-07
88	0xb504dd89	-4.949621e-07
89	0xb55c4284	-8.205318e-07
90	0xb686089d	-3.994514e-06
91	0x338d7f6f	6.589004e-08
92	0x346b0159	2.1886571e-07
93	0xb7c39503	-2.33152e-05
94	0xb6957bb1	-4.4549456e-06
95	0xbae608e9	-0.0017550263
96	0x37bfd151	2.2866445e-05
97	0x359cea3b	1.1691076e-06
98	0xb73ae16a	-1.1138947e-05
99	0x358b2b52	1.0368915e-06
100	0xb4e2aa6e	-4.2219784e-07
101	0xbad7da43	-0.0016468245
102	0xb7c688e8	-2.3667191e-05
103	0xb5d43685	-1.5811098e-06
104	0x340739e8	1.2593921e-07
105	0xb497615f	-2.8196789e-07
106	0x32d1d3c4	2.4427102e-08
107	0xb663c89a	-3.3942401e-06
108	0xb7c584b6	-2.3546028e-05
109	0xb6c0e69d	-5.748893e-06
110	0x35c88514	1.4939892e-06
111	0x361e361f	2.3575337e-06
112	0x34d38c6b	3.940398e-07
113	0x359d3f8a	1.1715904e-06
114	0xb3e9f87f	-1.0895109e-07
115	0xb40a81c2	-1.2899457e-07
116	0x350450d6	4.9291464e-07
117	0xb62b58b1	-2.553261e-06
118	0xb51d491d	-5.859345e-07
119	0xb46ca75c	-2.2040098e-07
120	0xb9fefac7	-0.000486335
121	0x3586cd43	1.0043517e-06
122	0x38a0d06d	7.668217e-05
123	0x39524963	0.000200545
124	0xb65ba21e	-3.2727908e-06
125	0xb40631d2	-1.2497847e-07
126	0x31949d80	4.3252726e-09
127	0xba1f37da	-0.0006073691
128	0x34a38860	3.0460342e-07
129	0x331cbc9a	3.6493113e-08
130	0xb7823e9c	-1.5526362e-05
131	0x33d9c423	1.0140527e-07
132	0xb7b34856	-2.1372147e-05
133	0xb7c36a48	-2.3295303e-05
134	0x358b1221	1.0361583e-06
135	0xb401f138	-1.2101816e-07
136	0xb716974a	-8.975921e-06
137	0x35ccd247	1.5260383e-06
138	0xb5735bff	-9.0658426e-07
139	0x3615430c	2.2241757e-06
140	0x35920822	1.0880215e-06
141	0x33550fa0	4.9607138e-08
142	0xb5203df7	-5.9694815e-07
143	0xb4ba7901	-3.4733242e-07
144	0x3aa6aa9e	0.0012715643
145	0xb1840310	-3.842054e-09
146	0x33e7ffd0	1.0803308e-07
147	0x3a46ef8a	0.00075887947
148	0xb9a4a4e5	-0.00031403374
149	0x348b942e	2.5998582e-07
150	0xb96a0aa7	-0.00022319947
151	0x3406cbb6	1.2553832e-07
152	0xb6137661	-2.1973613e-06
153	0xb5981bad	-1.1332937e-06
154	0x34001c07	1.1931125e-07
155	0x3a89687a	0.0010483407
156	0x37e15200	2.6860274e-05
157	0x383e35d0	4.5349647e-05
158	0x36500ced	3.100194e-06
159	0xb4301dd4	-1.6402129e-07
160	0x3a1b15e2	0.00059160416
161	0xb605eee8	-1.9957606e-06
162	0xb636d41c	-2.7243577e-06
163	0x3679c32e	3.72175e-06
164	0xb5153379	-5.558173e-07
165	0x399b1534	0.000295797
166	0xb587c403	-1.0115331e-06
167	0xb47825ff	-2.3110623e-07
168	0x36de086a	6.617095e-06
169	0x3ac0c632	0.0014707504
170	0xb3f5b6c8	-1.1441949e-07
171	0x388398a8	6.275001e-05
172	0xb3af9e88	-8.177909e-08
173	0x37b24d0a	2.1255128e-05
174	0xb6365560	-2.7169808e-06
175	0xb79f0e27	-1.8960867e-05
176	0x3ad4459e	0.0016195064
177	0x3409acaf	1.2821941e-07
178	0xb9ed0432	-0.00045207288
179	0xb5782d0a	-9.245274e-07
180	0x37b84f1e	2.1971351e-05
181	0xb3862481	-6.246501e-08
182	0x33c5c8ba	9.210039e-08
183	0x3aa53f60	0.0012607388
184	0x338d976d	6.593368e-08
185	0x36b06c15	5.257791e-06
186	0xb7acb815	-2.0589718e-05
187	0xb4c9eba8	-3.761063e-07
188	0xb3daae96	-1.0183173e-07
189	0xba3ab964	-0.0007122962
190	0x39b43ca3	0.00034377453
191	0xb6289a4c	-2.5123763e-06
192	0x3a0cd15e	0.00053717743
193	0xb58b723d	-1.0389555e-06
194	0xb5026a71	-4.8583667e-07
195	0x3a951e0d	0.0011376754
196	0xb8cd5e88	-9.7927696e-05
197	0xba582ffc	-0.00082468963
198	0x3632623c	2.6581247e-06
199	0x35df411f	1.6633747e-06
200	0x3ac71bac	0.0015190742
201	0xb7303c93	-1.0504521e-05
202	0xbad7d46a	-0.0016466503
203	0xb97c91a0	-0.00024086842
204	0xb4abb677	-3.1983993e-07
205	0xb7c1a7ce	-2.3085533e-05
206	0xb79ebc91	-1.8922876e-05
207	0xb5a00760	-1.1923075e-06
208	0x32c1d882	2.2566613e-08
209	0x38fb8177	0.000119927274
210	0xb396a3ee	-7.014738e-08
211	0x353ef831	7.114168e-07
212	0xb6fbf182	-7.508498e-06
213	0x34abd233	3.2004172e-07
214	0xba1089cb	-0.0005513697
215	0x36233e42	2.4325132e-06
216	0xb5bffd05	-1.4304247e-06
217	0xb312caea	-3.4177823e-08
218	0x32ad3c47	2.0167262e-08
219	0x36b7cd6c	5.4777393e-06
220	0x35894a2f	1.0228886e-06
221	0x367dd0eb	3.7821544e-06
222	0x347f206a	2.3760518e-07
223	0xb5912d59	-1.081654e-06
224	0x35688e17	8.6633503e-07
225	0x33c88740	9.3378276e-08
226	0xb2444995	-1.1425432e-08
227	0xbad62b48	-0.0016339803
228	0xb5ab02e7	-1.2741338e-06
229	0xb7a445b8	-1.9582789e-05
230	0xb35a1a71	-5.078113e-08
231	0xb6a70525	-4.9775867e-06
232	0xb1b55e14	-5.2784888e-09
233	0x3603d301	1.9643342e-06
234	0xbaaf6510	-0.0013381559
235	0xb6de4bef	-6.6249554e-06
236	0x394604eb	0.00018884584
237	0x373fbf7c	1.1429071e-05
238	0x351377b2	5.4935947e-07
239	0xb7a90fab	-2.0153666e-05
240	0xb644f7a0	-2.9350413e-06
241	0xb5298599	-6.3151816e-07
242	0x333ef7d0	4.4463206e-08
243	0x37c53caf	2.3512488e-05
244	0xb51a0131	-5.7371204e-07
245	0x355d53d6	8.2450913e-07
246	0xb313bc2c	-3.4397246e-08
247	0xb81291dc	-3.4944955e-05
248	0x36849007	3.9506735e-06
249	0xb6be9652	-5.679941e-06
250	0xb799a6b2	-1.8316645e-05
251	0xb54657f8	-7.388876e-07
252	0x39e0f08c	0.0004290383
253	0x38dcf668	0.00010536314
254	0x3a67c5c3	0.00088414195
255	0xba1b39d8	-0.00059214

conv2.convs.<track___same_genre___track>.bias f4 [5]
0	0x3a7b97dc	0.0009597519
1	0x3b14cc7d	0.0022704892
2	0x3b0b421f	0.0021249128
3	0x3ce610d6	0.0280842
4	0xbb9d191b	-0.0047942526

conv2.convs.<track___same_genre___track>.lin.weight f4 [5, 64]
0	0xbcb072c7	-0.021539105
1	0xbe093ed2	-0.1340287
2	0x3e68543f	0.22688387
3	0x3d3721bb	0.044709902
4	0xbd87acbc	-0.06624743
5	0x3e7fa357	0.24964653
6	0x3e311481	0.17292978
7	0xbe8fdab7	-0.28096554
8	0x39bf47b6	0.00036483788
9	0x3d24eecf	0.040266808
10	0x3e568cf2	0.20952204
11	0x3d81a601	0.06330491
12	0xbe96e34b	-0.29470286
13	0x3e35b3ac	0.1774432
14	0x3ca624d1	0.020281227
15	0xbc9e3257	-0.019311113
16	0x3d6e8c2e	0.058239155
17	0xbd13dfeb	-0.036102217
18	0x34e6a104	4.2957993e-07
19	0xbe61fe7f	-0.22069739
20	0xb9bde19c	-0.0003621698
21	0xbe392184	-0.18079191
22	0xbe8792a7	-0.26479074
23	0xbd0e8f7a	-0.0348048
24	0xbe9713be	-0.2950725
25	0x3e64425b	0.22290938
26	0xbd888cf9	-0.066675134
27	0x3e726cc2	0.236743
28	0xbe505c3c	-0.20347685
29	0xbe552cba	-0.20817843
30	0xbe9bfeb2	-0.30467755
31	0x3e49c55b	0.19704191
32	0xbe2a43e4	-0.1662746
33	0x3e0bbe29	0.13646759
34	0xbe563afc	-0.20920938
35	0x3e7685b0	0.24074435
36	0xbd9e0e7c	-0.077176064
37	0x3d900e2c	0.07033953
38	0xbd9c6ede	-0.07638334
39	0x39c78e4e	0.00038062263
40	0x3e8b216e	0.27173942
41	0x3e71ab30	0.23600459
42	0xbe90d22c	-0.28285348
43	0xbe32d71e	-0.17464873
44	0x3c3a4daa	0.011371056
45	0x3e7fcb5e	0.24979922
46	0xb0de62a0	-1.6180657e-09
47	0x3e08fa52	0.1337674
48	0x3e877ce0	0.2646246
49	0x3dcbe533	0.09955826
50	0x3e76c2b2	0.24097708
51	0xbda23a5a	-0.07921286
52	0x3c157e21	0.00912431
53	0x3db76389	0.08954532
54	0x3c8745c5	0.01651276
55	0xbe0ceb8e	-0.13761732
56	0xbe587395	-0.21137841
57	0xbe6d7156	-0.23187765
58	0x3dec13af	0.11527192
59	0x3dec2918	0.115312755
60	0x3d0a54db	0.03377233
61	0xbe76fa68	-0.2411896
62	0x3504952e	4.9390917e-07
63	0xbaf9aaa1	-0.0019048044
64	0x36c300f4	5.811564e-06
65	0xbe1ad238	-0.15119255
66	0x3e0baf53	0.136411
67	0xbda33a4c	-0.079701036
68	0x3d044e9f	0.03230154
69	0x3d8c5379	0.06851859
70	0x3c74693c	0.014917668
71	0x3c898b4e	0.016790058
72	0x3d4f2bfe	0.050579064
73	0x3cc7286f	0.024311272
74	0xbcab88dc	-0.020939283
75	0x3e52b8fe	0.20578381
76	0x3e4ade6c	0.1981141
77	0xbe0578fd	-0.13034435
78	0xbe6dc69a	-0.23220292
79	0xbdf2662e	-0.118358955
80	0x3e660cda	0.2246584
81	0x3c1b61be	0.009483753
82	0x3c9571ab	0.018242678
83	0xbe6e64ed	-0.23280688
84	0x3d04b6af	0.032400783
85	0xbe95fdfc	-0.29295337
86	0x3d96b1fd	0.07358167
87	0xbe21f55a	-0.1581625
88	0xbe50cb4b	-0.2039005
89	0x3e94ae33	0.29039153
90	0x3d2e1b4c	0.0425065
91	0xbd697a9a	-0.057001688
92	0x3d669961	0.056298617
93	0xbe9883b3	-0.2978798
94	0xbd937ecf	-0.07201921
95	0x3d82784c	0.06370601
96	0xbd972c6d	-0.073815204
97	0xbddd661b	-0.10810491
98	0x3dd77393	0.10520091
99	0xbe4ad467	-0.19807588
100	0xbd1c9c42	-0.038234957
101	0x3e015640	0.12630558
102	0xbdeab68f	-0.114606015
103	0x3d994728	0.07484275
104	0xbe66525f	-0.2249236
105	0x3e4fb6e4	0.20284611
106	0xbe761bda	-0.24034062
107	0x3db1969a	0.08671303
108	0xbba2e24b	-0.004970824
109	0xbe7946af	-0.2434337
110	0xba79cd9a	-0.0009529233
111	0xbe3ff139	-0.18744363
112	0xbe701e62	-0.2344909
113	0xbec5221a	-0.3850258
114	0xbe4d6455	-0.20057805
115	0xbd8dc413	-0.06922164
116	0xbdad454f	-0.08460485
117	0x3d0116fc	0.03151606
118	0xbb6052e5	-0.0034229096
119	0xbd79a666	-0.060949706
120	0x3db212fd	0.08695028
121	0x3e3b0e0e	0.1826708
122	0x3e09e7e2	0.13467363
123	0x3e5fd5b3	0.21858864
124	0x3e15baaf	0.14621995
125	0xbd3b4ebb	-0.04572938
126	0x3dfd70c2	0.123750225
127	0xb9bc2cc7	-0.00035891516
128	0x3d130b71	0.035899583
129	0xbe079f4a	-0.13244358
130	0x3e4155d4	0.18880397
131	0xbc0e6c3e	-0.008692799
132	0x3a7c5512	0.00096257136
133	0xbe826e54	-0.254748
134	0xbdf4e545	-0.11957792
135	0x3e374f1e	0.17901275
136	0xbdcd1a21	-0.10014749
137	0x3d4558b0	0.048180282
138	0x3e468cc6	0.19389638
139	0x3d8609e0	0.06544852
140	0x3d00c79c	0.031440362
141	0x3e981443	0.29702958
142	0xbd584c0c	-0.0528069
143	0x3805101f	3.1724685e-05
144	0x3cee3614	0.02907852
145	0x3cd34133	0.025787925
146	0xbdf0d28a	-0.11758907
147	0x3e5b5621	0.21419574
148	0x3de50787	0.11183076
149	0xbdaaa6da	-0.08332606
150	0xbdba7c64	-0.09105757
151	0xbd96f1fb	-0.07370373
152	0x3e30fea9	0.17284645
153	0x3e60c443	0.21949868
154	0x3b904ab8	0.0044034384
155	0x3e8e53bd	0.27798262
156	0x3e38ef89	0.18060125
157	0xbe59febc	-0.2128858
158	0x3e062f1f	0.13103913
159	0xbe797b8c	-0.24363536
160	0x3e90f0a1	0.28308585
161	0x3e949c6c	0.2902559
162	0xbe0bf88f	-0.13669036
163	0xbc9844d0	-0.0185875
164	0xbe5ad34f	-0.2136967
165	0xbd8eacce	-0.06966554
166	0xbe438387	-0.19093142
167	0xbccb4c53	-0.024816668
168	0x3dc391e0	0.09549308
169	0x3db334d2	0.08750309
170	0xbe50355f	-0.2033286
171	0xbe2f2650	-0.17104459
172	0x3a5a71ba	0.00083329866
173	0xbcabb65b	-0.020960977
174	0x34e2c925	4.2242132e-07
175	0x3e08a2d9	0.13343371
176	0x3e1a9562	0.15096048
177	0x3e93fe6f	0.28905055
178	0xbe638888	-0.22220051
179	0x3c28bb8d	0.010298622
180	0x3d7e29c1	0.06205154
181	0xbe9e6671	-0.30937532
182	0xb53470c0	-6.72193e-07
183	0x3ddda24c	0.10821971
184	0x3d116c5a	0.035503723
185	0x3e231cf9	0.15929021
186	0xbd8a76f9	-0.067609735
187	0x3c51eeb2	0.012813257
188	0xbd8209de	-0.06349538
189	0x3e7c581e	0.24642989
190	0xb5baf325	-1.3928844e-06
191	0x3d600e1c	0.054700956
192	0xbd5a7eb1	-0.05334348
193	0x3e88103a	0.2657488
194	0x3dea23c1	0.11432601
195	0x3ca2a63d	0.01985466
196	0xb5c70ab4	-1.482977e-06
197	0xbe74c175	-0.23901923
198	0xbe1d2168	-0.15344775
199	0x3ce557d2	0.027995978
200	0xbd0c4424	-0.03424467
201	0x3d20195f	0.039086696
202	0x3ea3ad6f	0.31968257
203	0xbe27ecf4	-0.16398984
204	0x3e1b950e	0.15193579
205	0xbe084347	-0.13306914
206	0x3db141ce	0.086551294
207	0x35d6af25	1.5995216e-06
208	0xbe77e909	-0.2420999
209	0x3367195c	5.3806943e-08
210	0xb5de2bec	-1.6553072e-06
211	0xbe519fc9	-0.2047111
212	0x3db010c3	0.08596947
213	0xbe8c2761	-0.27373794
214	0x3daa17a2	0.08305289
215	0xbd48910b	-0.04896645
216	0x3f00ef98	0.5036559
217	0xbd8acacf	-0.06776964
218	0xbe11a6e7	-0.14223824
219	0x3e8e68c1	0.27814296
220	0xbd370746	-0.04468467
221	0xbdfaff40	-0.12255716
222	0x3e2ba2ae	0.16761276
223	0xbe2c31a6	-0.16815814
224	0xbde01566	-0.109415814
225	0xbe3829a6	-0.17984638
226	0x3e603899	0.2189659
227	0xbe863438	-0.26211715
228	0x3cbd391b	0.02309852
229	0x3710aabc	8.622821e-06
230	0xbd45815e	-0.048219077
231	0x3d25af36	0.040450297
232	0x3e5f85d8	0.21828401
233	0xbd0af3de	-0.033923976
234	0x3d075089	0.03303579
235	0x3e314cb1	0.17314412
236	0xb4c9cc5b	-3.7587856e-07
237	0x3dba1140	0.090853214
238	0xb748dd90	-1.19725155e-05
239	0xbe2cd6a0	-0.16878748
240	0xbd5cd6e1	-0.053915862
241	0xbbaef005	-0.005338671
242	0x3e1bd9a5	0.15219744
243	0xb427a8ca	-1.5614492e-07
244	0xbd304b84	-0.043040767
245	0xbe1037bf	-0.14083765
246	0x3da93208	0.08261496
247	0xbe2823c8	-0.164199
248	0x3e389a83	0.18027692
249	0x3e845149	0.25843266
250	0x3e5ce940	0.21573353
251	0xbe860516	-0.26175755
252	0x38605751	5.348708e-05
253	0x3dabac97	0.08382528
254	0x35d30e28	1.5724845e-06
255	0xbd18fa02	-0.0373478

conv2.convs.<track___same_artist___track>.bias f4 [5]
0	0x3a7b97dc	0.0009597519
1	0x3b14cc7d	0.0022704892
2	0x3b0b421f	0.0021249128
3	0x3ce610d6	0.0280842
4	0xbb9d191b	-0.0047942526

conv2.convs.<track___same_artist___track>.lin.weight f4 [5, 64]
0	0xbdbd4573	-0.09241762
1	0x3e758024	0.23974663
2	0x3e25c4e2	0.16188386
3	0xb4ffa494	-4.7617198e-07
4	0x359d9498	1.1740658e-06
5	0xbe72e8c9	-0.23721613
6	0x3e05f17e	0.13080403
7	0x3cc86fa6	0.0244673
8	0xbdf2259f	-0.11823582
9	0xbc540692	-0.01294102
10	0x3e556330	0.20838618
11	0xbdcd6c7b	-0.10030457
12	0x3df49673	0.119427584
13	0x3d75743e	0.05992531
14	0xbe94a5be	-0.290327
15	0x3df2c0f0	0.11853206
16	0x3e2dafdc	0.16961616
17	0x3dbb74a8	0.0915311
18	0xbd924f65	-0.071440496
19	0x3e9725fc	0.29521167
20	0x3d280c64	0.04102744
21	0xbd98e31c	-0.07465193
22	0xbe9631c8	-0.29334855
23	0x3da512ba	0.080602124
24	0xbed7a43d	-0.4211749
25	0xbdbd8cb4	-0.092553526
26	0xbdc3227b	-0.09528061
27	0xbabe5b49	-0.0014523055
28	0x3d77ec80	0.06052828
29	0x3df2b128	0.11850196
30	0xbe2b4829	-0.16726746
31	0xbd5381b4	-0.051637366
32	0x3e993643	0.2992421
33	0x3e52bc3a	0.20579615
34	0xbe381e27	-0.17980252
35	0xbe467bd4	-0.19383174
36	0xbd3162ac	-0.04330699
37	0xbde3474c	-0.11097583
38	0xbd65d659	-0.05611262
39	0xbd9b7c2f	-0.075920455
40	0x3e252b37	0.16129766
41	0xbe1f6169	-0.15564503
42	0x3e6389db	0.22220556
43	0x3dca48b3	0.098771475
44	0x32d64285	2.4943128e-08
45	0xbd321abe	-0.043482535
46	0xb5027a08	-4.860635e-07
47	0xbe5d9d8f	-0.21642135
48	0xbddb890e	-0.107195005
49	0x3e3e4d41	0.18584158
50	0xbe5449ad	-0.2073123
51	0x3c954f88	0.0182264
52	0xb5e6d91d	-1.7199524e-06
53	0x3d31193e	0.043236963
54	0xbd72abb6	-0.059245788
55	0x3e28b5ed	0.16475649
56	0xbe3c7941	-0.1840563
57	0xbde9e2c2	-0.11420204
58	0xbe579412	-0.21052578
59	0x3e6546a0	0.22390223
60	0xbd9a58da	-0.07536478
61	0xbd4f89cc	-0.050668523
62	0xbde712b9	-0.11282868
63	0xb53aac93	-6.954153e-07
64	0xb7a9215d	-2.0161906e-05
65	0xbdc3812a	-0.095461205
66	0x3e26cd6e	0.16289303
67	0x3de7e931	0.113237746
68	0xb3964796	-6.997941e-08
69	0x3e632cbf	0.22185038
70	0xbe9e5065	-0.3092071
71	0x3e6cc449	0.23121752
72	0xbcfeca37	-0.031102283
73	0x3a9f40ad	0.0012150012
74	0xbe652c61	-0.2238021
75	0xbe3b5606	-0.18294534
76	0x3e4fb331	0.202832
77	0x3e8fcc40	0.28085518
78	0xbe90f7f9	-0.28314188
79	0xbda548f4	-0.08070555
80	0x3d4158dd	0.047203887
81	0xb2aaf150	-1.9900341e-08
82	0x3cfe1646	0.03101648
83	0xbe594bc9	-0.21220316
84	0x3d72ae30	0.05924815
85	0x3d9855ad	0.07438216
86	0xbe00d153	-0.12579851
87	0x3e8c984d	0.27459946
88	0xbdb96899	-0.090531535
89	0xbe95171b	-0.2911919
90	0xbd94aede	-0.07259916
91	0x3e225b3e	0.15855119
92	0x3dfae208	0.12250143
93	0xbdfe45d3	-0.12415662
94	0x3e0623d8	0.13099611
95	0x3e899f05	0.26879135
96	0xbca29d0d	-0.019850278
97	0x3e3e6e2a	0.18596712
98	0x3e2b834e	0.16749308
99	0x3db87b51	0.09007896
100	0xbe6ecdd5	-0.23320706
101	0x3d5d0510	0.053959906
102	0xbe2638ee	-0.16232654
103	0xb6f90354	-7.4211657e-06
104	0x3dc53c74	0.09630671
105	0x3e914084	0.28369534
106	0xbd5940e0	-0.053040385
107	0x3e4e0a42	0.201211
108	0x3706219a	7.994846e-06
109	0x3e1d05e8	0.15334284
110	0x3db23ef8	0.087034166
111	0x3befa790	0.007313676
112	0xbe7d7240	-0.24750614
113	0xbe5c2f2d	-0.21502371
114	0xbe4ab7a1	-0.19796611
115	0x3d006dc8	0.031354696
116	0x3c94452c	0.01809939
117	0xbe59ac75	-0.21257193
118	0xbde8e5c8	-0.11371952
119	0xbd84a109	-0.064760275
120	0x3e5b15a1	0.2139497
121	0xbc7231b8	-0.014782362
122	0xbe050a33	-0.12992172
123	0x3dcfb4ba	0.10141893
124	0x3e251dca	0.16124645
125	0x3d9c9522	0.07645632
126	0x3a4ad36a	0.00077371916
127	0x3dac99a3	0.084277414
128	0xbdea7439	-0.11447949
129	0xbde96614	-0.11396423
130	0x3e907e31	0.28221276
131	0x35800d4b	9.540612e-07
132	0x34bb3c38	3.487528e-07
133	0x3c58ad5f	0.013224929
134	0xbe5f2943	-0.21793084
135	0x3e8f1a2a	0.2794965
136	0x3c777ce8	0.015105464
137	0x3432b144	1.664203e-07
138	0x3e6cbfe2	0.23120072
139	0xbd88018e	-0.066409215
140	0x3e8b1321	0.27163032
141	0xbc6d7f55	-0.01449569
142	0xbd0366df	-0.032080527
143	0x39a7e214	0.00032021163
144	0x3dd197cc	0.10234031
145	0xbc79bf1a	-0.015243316
146	0x3db7c44c	0.089729875
147	0xbe2d1e62	-0.16906121
148	0x3791e926	1.7393915e-05
149	0xbdb96574	-0.09052554
150	0xbe09f368	-0.13471758
151	0x3e6628cc	0.224765
152	0x3d78688b	0.060646575
153	0x3d76c308	0.06024459
154	0xbd0454a0	-0.032307267
155	0xbe8189f7	-0.2530057
156	0x3e637b3e	0.22214982
157	0x3e342598	0.17592466
158	0x3cab8ede	0.020942148
159	0x3b72b05f	0.0037031395
160	0x3d5442b7	0.051821437
161	0x3d3d1e0d	0.046171237
162	0xbe02dc70	-0.12779403
163	0xbd45742f	-0.048206504
164	0xbd99e2f2	-0.075139895
165	0xbc7e334a	-0.015515158
166	0xbe09769c	-0.13424152
167	0x3ca30843	0.0199014
168	0xbe3fecf9	-0.18742742
169	0xbbf3c0ab	-0.0074387393
170	0xbd2abb14	-0.041682318
171	0x3da14f61	0.078764684
172	0xbd7795fe	-0.060445778
173	0xbe49c4ea	-0.19704023
174	0x3dddf996	0.1083862
175	0xbe545ff1	-0.20739724
176	0xbd869efc	-0.065732926
177	0x3e9dbceb	0.30808195
178	0xbe40639a	-0.18787995
179	0x3d8be4c0	0.0683074
180	0xbc16ab35	-0.009196092
181	0xbd36b86c	-0.044609472
182	0xbdfe31a0	-0.12411809
183	0xbe5ad920	-0.21371889
184	0xbe6b8fbc	-0.23004049
185	0x3e230229	0.15918793
186	0xbe39a90b	-0.18130891
187	0xbd8c72a8	-0.068578064
188	0x3c850d22	0.016241614
189	0x3bc41fa5	0.0059852176
190	0x37c5e667	2.359152e-05
191	0xb5f9bf46	-1.8607614e-06
192	0x3619ad6e	2.2899726e-06
193	0x3e2980c5	0.16553028
194	0xbc869669	-0.016429143
195	0xbc9211a3	-0.017830675
196	0xb7074067	-8.061622e-06
197	0x3e0aceb0	0.13555408
198	0x3de900b2	0.11377086
199	0x3e19a91b	0.15005915
200	0x3c1d2f0e	0.009593738
201	0xbda887c1	-0.08229018
202	0x3d52aa6a	0.05143205
203	0x3d13dc0e	0.036098532
204	0x3eb200d3	0.34766254
205	0x3d44d30c	0.048052832
206	0xbe83d64d	-0.25749436
207	0x3da515b1	0.08060778
208	0xbe1b1780	-0.15145683
209	0x3c0904ce	0.008362962
210	0xbd7381c3	-0.059449922
211	0x3de54cfa	0.11196323
212	0x3446f4b3	1.8529208e-07
213	0xbe6fe837	-0.23428427
214	0x3e0e73a6	0.13911304
215	0xbb549a74	-0.0032440694
216	0x3d80e720	0.062940836
217	0xbe674d65	-0.22588117
218	0xbdf7a47a	-0.12091918
219	0x3e191e43	0.1495295
220	0xbca48718	-0.020083949
221	0xbe32d236	-0.17463002
222	0x3e0277c5	0.12741001
223	0x3d26e30e	0.04074388
224	0x3e96b672	0.2943607
225	0x3cf128a4	0.029438324
226	0xbd16a981	-0.036782745
227	0x3dcc9bf9	0.09990687
228	0x3ea2d9cd	0.31806794
229	0xbd53347f	-0.051563736
230	0x3dc37de1	0.09545494
231	0xbdca06ad	-0.098645546
232	0xbe3e765a	-0.18599835
233	0xbe4991f8	-0.19684589
234	0xbdec3416	-0.11533372
235	0xbc006830	-0.00783734
236	0x3d128bef	0.035777982
237	0xbe22c562	-0.15895608
238	0xbe004155	-0.12524922
239	0x3d61742f	0.055042442
240	0xbd5e02b1	-0.054201785
241	0xbd464488	-0.0484052
242	0xbe070f57	-0.13189445
243	0x370e9c3b	8.500235e-06
244	0xbdd26bc9	-0.10274465
245	0xbd97921c	-0.07400915
246	0x3d3f1fd3	0.04666121
247	0xbd1a3821	-0.037651185
248	0x3d66111b	0.056168657
249	0xbe328b7b	-0.1743602
250	0xbe5e544f	-0.21711849
251	0x3d820355	0.06348292
252	0x3d25619e	0.040376298
253	0x3d4432f5	0.04790016
254	0x3d7ca116	0.06167706
255	0xbc27a22e	-0.010231538

conv2.convs.<track___same_album___track>.bias f4 [5]
0	0x3a7b97dc	0.0009597519
1	0x3b14cc7d	0.0022704892
2	0x3b0b421f	0.0021249128
3	0x3ce610d6	0.0280842
4	0xbb9d191b	-0.0047942526

conv2.convs.<track___same_album___track>.lin.weight f4 [5, 64]
0	0xbca643bb	-0.020295968
1	0xbe60390e	-0.21896765
2	0x3e0ec87e	0.13943669
3	0x35414e88	7.201238e-07
4	0x35403169	7.1597475e-07
5	0x3e7ec680	0.24880409
6	0xbe12c295	-0.1433204
7	0xbda16656	-0.07880847
8	0xbdc53def	-0.096309535
9	0x3dd1b409	0.10239417
10	0xbe08d9ef	-0.13364385
11	0x3d748c9f	0.05970442
12	0x3d88aca8	0.066735566
13	0xbdcf95fa	-0.10136028
14	0xbe153fbe	-0.14575097
15	0x3d61a1f6	0.0550861
16	0x3e0b4cb4	0.13603479
17	0xbe001e9a	-0.12511674
18	0xbdeda628	-0.116039574
19	0xbe3f5a9a	-0.18686906
20	0xbd3b3bfe	-0.04571151
21	0xbd9c7ff6	-0.07641594
22	0x3e31a3aa	0.17347589
23	0xbe1109ce	-0.14163896
24	0xbec0598d	-0.37568322
25	0x3dfacee1	0.1224649
26	0x3dd2c9c9	0.10292394
27	0x3e4dd5a3	0.20101027
28	0xbd9aa2c6	-0.07550578
29	0x3d6cd3e3	0.05781926
30	0xbe6f339d	-0.23359533
31	0x3be2c5d8	0.0069205575
32	0xbe3210e3	-0.17389254
33	0xbe5ce690	-0.21572328
34	0xbc61a84a	-0.013773033
35	0x3dfa821e	0.12231849
36	0x3d328964	0.043588057
37	0x3cab5399	0.020913886
38	0xbd8b9dac	-0.06817183
39	0xb8865bd8	-6.406725e-05
40	0xbd29a009	-0.041412387
41	0x3e74043b	0.23829739
42	0x3e0ed9ed	0.1395032
43	0x3d3b14b0	0.045674026
44	0x3d55c770	0.05219215
45	0x3e6f5b1c	0.23374599
46	0xbdc32b1b	-0.09529706
47	0xbd9009e6	-0.07033138
48	0xbe6eb61c	-0.23311657
49	0xbe8568c5	-0.26056495
50	0x3e16cb17	0.1472591
51	0x350679e6	5.0096276e-07
52	0x3d09507d	0.033524025
53	0xbd952fea	-0.072845295
54	0xbd873c9f	-0.066033594
55	0xbe3acbc5	-0.18241794
56	0x3e56e36e	0.20985195
57	0xbcb4348a	-0.021997709
58	0xbe1533bd	-0.14570518
59	0xbe6efe8b	-0.23339288
60	0x3d3dcded	0.046338964
61	0xbe52d3a5	-0.20588548
62	0xba4670bc	-0.00075698993
63	0x3dbec72f	0.09315335
64	0xbd262810	-0.04056555
65	0x3ea6c3cc	0.32571256
66	0xbdc45466	-0.0958641
67	0x3dd0ad55	0.101893105
68	0x3c7ad8f3	0.015310514
69	0x3e8bce4e	0.27305835
70	0xbde40fad	-0.111358024
71	0xbdfa1610	-0.12211239
72	0x3a7e7818	0.00097072264
73	0x3d941db8	0.07232231
74	0x3d6fcbd8	0.05854401
75	0xbe96e526	-0.294717
76	0xbe31c001	-0.173584
77	0xbe5101e6	-0.2041088
78	0x3e8dec4d	0.27719346
79	0x3594e05b	1.1092155e-06
80	0xbd8935c6	-0.066997096
81	0x3d835c16	0.064140484
82	0xb53453eb	-6.717734e-07
83	0xbd308e83	-0.04310466
84	0x3dea971a	0.114546016
85	0xbe3a00e9	-0.1816441
86	0x3e74ed3f	0.23918627
87	0xbe89c21b	-0.26905903
88	0x3d8d5053	0.06900086
89	0xbdf3ad39	-0.11898274
90	0x3de3e55a	0.1112773
91	0x3aadd42f	0.0013262088
92	0xbe947840	-0.28997993
93	0xbe1adb81	-0.15122797
94	0xbe65e2a5	-0.2244974
95	0xbbc51e62	-0.006015585
96	0xbd213641	-0.03935838
97	0xbdb915c7	-0.09037357
98	0x3db31a30	0.08745229
99	0x3e032ab9	0.12809266
100	0x3d946822	0.07246424
101	0x3520d641	5.9916425e-07
102	0xbe007f43	-0.12548546
103	0x3c426e57	0.011867127
104	0xb99d9457	-0.00030055895
105	0xbe14d489	-0.145342
106	0xbdd94cee	-0.10610376
107	0xbca62c37	-0.020284755
108	0x3dc2fcc5	0.09520868
109	0xbe8cc2df	-0.27492425
110	0xbd05d1ff	-0.03267097
111	0x3e48def1	0.19616295
112	0x3e418363	0.18897776
113	0xbe64a6d3	-0.22329263
114	0xbdaabeec	-0.08337197
115	0xbb3e19dd	-0.0029007115
116	0xbd59a6fc	-0.053137764
117	0x3db5233c	0.08844611
118	0xb5d4e866	-1.5862868e-06
119	0x3d52858f	0.051396903
120	0x3e82c5b5	0.25541463
121	0xbe76fc20	-0.24119616
122	0x3e6522e9	0.22376598
123	0x3cd168d9	0.02556269
124	0x3e2b7f6b	0.16747825
125	0xbcec1106	-0.028816711
126	0x3c0499e7	0.008093334
127	0x3dff90fd	0.12478826
128	0xbdaf4e41	-0.085598476
129	0xbe00133c	-0.12507337
130	0x3e09e502	0.13466266
131	0x3d0a497e	0.033761494
132	0xbc3fef2f	-0.011714741
133	0xbd892532	-0.066965476
134	0xbe62d326	-0.22150859
135	0x3e2ab3ae	0.16670105
136	0x39d23018	0.00040090154
137	0xb572b46f	-9.041459e-07
138	0x3dcd2aff	0.100179665
139	0xbd789891	-0.060692374
140	0x3e704c1f	0.23466538
141	0x3e7a1495	0.24421914
142	0xbe2bfc0a	-0.16795364
143	0x3dcee045	0.1010137
144	0xbdc970fb	-0.098360024
145	0xbcd0f160	-0.025505722
146	0xbd57d3a7	-0.05269208
147	0xbe554446	-0.20826825
148	0xbb391d53	-0.0028246238
149	0xbe156d85	-0.1459256
150	0x3d8a02f1	0.06738842
151	0xbe58d305	-0.21174248
152	0xbcd9aa2f	-0.026570408
153	0xbe387031	-0.18011548
154	0x3e12345e	0.14277789
155	0x3d39fc87	0.045406844
156	0xbe20479d	-0.15652318
157	0xbe00c353	-0.1257451
158	0xbe3556e7	-0.17708932
159	0x3e8fe44f	0.28103873
160	0x3e3475ec	0.17623109
161	0x3c52d73a	0.012868697
162	0xbcd83fe6	-0.026397657
163	0x3e6f006c	0.23340005
164	0xbe1f12a3	-0.15534453
165	0x35f87be2	1.8513495e-06
166	0xbcab0d92	-0.020880494
167	0xbcd04604	-0.025424011
168	0x3db24042	0.087036625
169	0xbe8dc061	-0.27685836
170	0xbd714611	-0.05890471
171	0xbdf3a672	-0.11896981
172	0x3dca8ab0	0.09889734
173	0xbe1bc51a	-0.15211907
174	0x39cf1c60	0.00039503258
175	0xbdafe727	-0.08589011
176	0x3c00542d	0.007832569
177	0x3d8ad6eb	0.067792736
178	0xbe83d628	-0.25749326
179	0xbd68645b	-0.05673633
180	0xbceaf62b	-0.028681835
181	0xbdf10053	-0.1176764
182	0xb62912d0	-2.5193913e-06
183	0xbe3d38dd	-0.18478723
184	0xbd0d4a67	-0.034494784
185	0xbdc36907	-0.09541517
186	0x3e29c7bb	0.16580097
187	0x3e7080bc	0.23486608
188	0xbc1f3a8b	-0.009718548
189	0x3d3a6dd8	0.04551491
190	0x3ddda1a7	0.10821848
191	0x3634ed26	2.6960129e-06
192	0xbda46168	-0.08026391
193	0xbde04282	-0.10950185
194	0xbd347a68	-0.04406205
195	0xba28376a	-0.0006416949
196	0x3d4b37a6	0.049613617
197	0xbe7db8c9	-0.24777521
198	0xbe5a1cbe	-0.21300027
199	0x3e2b221f	0.16712235
200	0x3ada9c4d	0.0016678661
201	0xbd8f4561	-0.06995655
202	0x3e777a54	0.24167758
203	0xbcbd051c	-0.023073725
204	0x3e9ad43d	0.3024005
205	0x3e5684fb	0.20949166
206	0x3ea26cde	0.31723684
207	0x37c630b2	2.3626115e-05
208	0x3e4e7a63	0.20163874
209	0x35fc251f	1.8786267e-06
210	0x3dc265d6	0.0949208
211	0x3daab295	0.08334843
212	0x3d82240d	0.063545324
213	0x3d4e39ca	0.05034808
214	0xbbf47b5a	-0.0074609937
215	0x3dc1093a	0.09425588
216	0xbcd0f00e	-0.025505092
217	0x3b42cbac	0.0029723449
218	0xbe833f44	-0.25634205
219	0x3e02a6c4	0.12758929
220	0x3e077a68	0.13230288
221	0xbba554c3	-0.005045505
222	0x3e4a8bcc	0.19779891
223	0xbd61dc16	-0.05514153
224	0xbdc81cfc	-0.09771153
225	0xbe44042f	-0.19142221
226	0xbdfcde2f	-0.12347066
227	0x3e8736c9	0.26408985
228	0xbe0cc24b	-0.13745992
229	0x3c2ca7b6	0.010538032
230	0xbe2119e9	-0.1573254
231	0xbc9f610f	-0.01945546
232	0xbe81e9c9	-0.25373676
233	0x3e49aa14	0.19693786
234	0xbe3a4b34	-0.1819275
235	0x3e5db7a3	0.21652083
236	0x3965f958	0.0002193203
237	0xbd92f463	-0.07175519
238	0x3dd668a7	0.104691796
239	0xbd75e19f	-0.060029622
240	0xbe2dc8bc	-0.16971105
241	0xbde7b32d	-0.11313472
242	0xbe3fcf0c	-0.18731326
243	0xbd75f252	-0.060045548
244	0xbd6c79c6	-0.05773332
245	0xbd0d1588	-0.034444362
246	0xbb32849f	-0.0027239693
247	0xbe1618b0	-0.14657855
248	0xbe193bac	-0.1496417
249	0xbdc47022	-0.095917
250	0xbd6db51c	-0.058034047
251	0xbdb62276	-0.08893292
252	0x3db70837	0.08937114
253	0x3d485284	0.048906818
254	0xb4b151d6	-3.3028363e-07
255	0xb91979b8	-0.00014636561
